…
-main.py : A gateway file to start application and create .exe file.
 


======================================================================================================================================

-Working:

This project uses a custom made CNN to classify images as AI or Human.For this it used the keras,tensorflow by google and was trained on Asus gaming laptop with a rtx 3050 gpu.
The CNN architecture is summarised below:

_________________________________________________________________
 Layer (type)                Output Shape              Param #   
=================================================================
 conv2d_81 (Conv2D)          (None, 256, 256, 16)      448       
                                                                 
 max_pooling2d_45 (MaxPooli  (None, 128, 128, 16)      0         
 ng2D)                                                           
                                                                 
 conv2d_82 (Conv2D)          (None, 126, 126, 32)      4640      
                                                                 
 max_pooling2d_46 (MaxPooli  (None, 63, 63, 32)        0         
 ng2D)                                                           
                                                                 
 conv2d_83 (Conv2D)          (None, 61, 61, 64)        18496     
                                                                 
 conv2d_84 (Conv2D)          (None, 59, 59, 64)        36928     
                                                                 
 max_pooling2d_47 (MaxPooli  (None, 29, 29, 64)        0         
 ng2D)                                                           
                                                                 
 conv2d_85 (Conv2D)          (None, 27, 27, 128)       73856     
                                                                 
 conv2d_86 (Conv2D)          (None, 25, 25, 128)       147584    
                                                                 
...
Total params: 3201122 (12.21 MB)
Trainable params: 3201122 (12.21 MB)
Non-trainable params: 0 (0.00 Byte)	

======================================================================================================================================

-Things to know:

This application takes the input image from user and transforms it to a format that is suitable to be used for prediction by the binary classifier model that was made by me.
…
